Test Accuracy: 0.82
Model Summary:
Model: "sequential"
┏━━━━━━━━━━━━━━━━━━━━━━━━━━━━━━━━━━━━━━┳━━━━━━━━━━━━━━━━━━━━━━━━━━━━━┳━━━━━━━━━━━━━━━━━┓
┃ Layer (type)                         ┃ Output Shape                ┃         Param # ┃
┡━━━━━━━━━━━━━━━━━━━━━━━━━━━━━━━━━━━━━━╇━━━━━━━━━━━━━━━━━━━━━━━━━━━━━╇━━━━━━━━━━━━━━━━━┩
│ embedding (Embedding)                │ (None, 40000, 50)           │          12,800 │
├──────────────────────────────────────┼─────────────────────────────┼─────────────────┤
│ conv1d (Conv1D)                      │ (None, 39996, 64)           │          16,064 │
├──────────────────────────────────────┼─────────────────────────────┼─────────────────┤
│ max_pooling1d (MaxPooling1D)         │ (None, 19998, 64)           │               0 │
├──────────────────────────────────────┼─────────────────────────────┼─────────────────┤
│ dropout (Dropout)                    │ (None, 19998, 64)           │               0 │
├──────────────────────────────────────┼─────────────────────────────┼─────────────────┤
│ flatten (Flatten)                    │ (None, 1279872)             │               0 │
├──────────────────────────────────────┼─────────────────────────────┼─────────────────┤
│ dense (Dense)                        │ (None, 64)                  │      81,911,872 │
├──────────────────────────────────────┼─────────────────────────────┼─────────────────┤
│ dropout_1 (Dropout)                  │ (None, 64)                  │               0 │
├──────────────────────────────────────┼─────────────────────────────┼─────────────────┤
│ dense_1 (Dense)                      │ (None, 1)                   │              65 │
└──────────────────────────────────────┴─────────────────────────────┴─────────────────┘
 Total params: 245,822,405 (937.74 MB)
 Trainable params: 81,940,801 (312.58 MB)
 Non-trainable params: 0 (0.00 B)
 Optimizer params: 163,881,604 (625.16 MB)


Classification Report:
              precision    recall  f1-score   support

     Label 0       0.75      1.00      0.86         6
     Label 1       1.00      0.60      0.75         5
…
